…
, layers=2, layer_num=3, node_dropout=0.75, message_dropout=0.25, omega=1, data_name='yelp', behaviors=['tip', 'neutral', 'neg', 'pos'], loss_type='bpr', neg_count=4, if_load_model=False, gpu_no=1, topk=[10, 20, 50, 80], metrics=['hit', 'ndcg'], lr=0.001, decay=0.0, batch_size=1024, test_batch_size=1024, min_epoch=5, epochs=200, model_path='./check_point', check_point='', model_name='yelp', device='cuda:4', data_path='./data/Yelp', TIME='2025-05-30 09_35_11')
2025-05-30 09:35:27.657 | INFO     | __main__:<module>:103 - BIPN(
  (message_dropout): Dropout(p=0.25, inplace=False)
  (user_embedding): Embedding(19801, 64, padding_idx=0)
  (item_embedding): Embedding(22735, 64, padding_idx=0)
  (global_Graph): LightGCN()
  (behavior_Graph_list): ModuleList(
    (0-3): 4 x LightGCN()
  )
  (transformer): LinearTransformer(
    (trans_conv): TransConv(
      (convs): ModuleList(
        (0): TransConvLayer(
          (Wk): Linear(in_features=64, out_features=64, bias=True)
          (Wq): Linear(in_features=64, out_features=64, bias=True)
        )
      )
      (fcs): ModuleList(
        (0): Linear(in_features=64, out_features=64, bias=True)
      )
      (bns): ModuleList(
        (0-1): 2 x LayerNorm((64,), eps=1e-05, elementwise_affine=True)
      )
    )
    (fc): Linear(in_features=64, out_features=64, bias=True)
  )
  (gate_layer): Linear(in_features=128, out_features=64, bias=True)
  (W_q): Linear(in_features=64, out_features=64, bias=False)
  (W_k): Linear(in_features=64, out_features=64, bias=False)
  (W_v): Linear(in_features=64, out_features=64, bias=False)
  (out_proj): Linear(in_features=64, out_features=64, bias=True)
  (gate_linear_att): Linear(in_features=64, out_features=64, bias=True)
  (layernorm): LayerNorm((64,), eps=1e-05, elementwise_affine=True)
  (pre_dis_layer): GraphDistillationLayer(
    (phi): ModuleList(
      (0-3): 4 x Linear(in_features=128, out_features=64, bias=True)
    )
  )
  (RZ): Linear(in_features=128, out_features=128, bias=True)
  (U): Linear(in_features=128, out_features=64, bias=True)
  (bpr_loss): BPRLoss()
  (emb_loss): EmbLoss()
  (cross_loss): BCELoss()
)
2025-05-30 09:53:54.899 | INFO     | trainer:_train_one_epoch:119 - epoch 1 1107.24s Train loss is [0.1675] 
2025-05-30 09:54:06.231 | INFO     | trainer:_train_one_epoch:127 - validate 1 cost time 11.33s, result: {'hit@10': np.float64(0.0032), 'ndcg@10': np.float64(0.0015), 'hit@20': np.float64(0.0059), 'ndcg@20': np.float64(0.0021), 'hit@50': np.float64(0.0145), 'ndcg@50': np.float64(0.0038), 'hit@80': np.float64(0.0232), 'ndcg@80': np.float64(0.0052)} 
…
